checkpoint.pth (torch_old, 833889 bytes, 10 tensors)

fc1.weight f4 [256, 37]
00000000: f1ee 243d eba6 533e 862d 48be c052 82be
00000010: 25ba d1bc 99af 9a3d 7f8b 03be 7a5c 9b3e
00000020: a607 89bc f3cd 00bd d678 49bd 16ee c6bd
00000030: d3cd 54bd df38 13be a795 edbd a9c9 ac3d
00000040: df6e 0bbb e20a 8c3d 5381 52be a2e9 90be
00000050: e3e9 ff3a eac2 be3d 5e2e b2bc 76bd 6b3e
00000060: f460 24be 9a76 c73c 3be8 9c3d b261 05be
00000070: 3a52 e8bd 3101 19be 9948 e7bd 5d82 d03d
00000080: c485 c4bd 5e01 16bd 6550 69be 082c 5bbe
00000090: 87a4 55bd ccd3 093e c014 043d f2fa b3bb
000000a0: a8ca dbbd 81ad 27be 7669 37bd e999 d2bd
000000b0: e4de 2cbe c487 95be b278 283e 9826 043e
000000c0: 724c 07be 67f6 b8bd 4277 f3bc 58e7 493e
000000d0: c490 d7bc 2815 aa3d 54fe 103d 2bf0 f4bd
000000e0: 7455 dcbd 6ad8 84be ff03 4ebe d806 f0bc
000000f0: 5da8 b53d c932 2abd 09d9 0cbe 1422 e4bc
00000100: 4a55 8f3d fdf8 9fbe 7f08 43be f022 9f3c
00000110: 9857 ae3d 802a cd3d 4d37 93be e090 9ebe
00000120: 1804 8f3d c5e7 0c3d 84ba f83d 759b 0c3e
00000130: f8ce db3d d868 2bbd 32bf 7ebb 8088 a3be
00000140: 78d1 1bbc f685 353e 6830 013e 0b09 26bf
00000150: c530 cf3c d827 ff3c 0794 4d3c 5fce bebd
00000160: 3769 c73d 32fc 543d 43d8 753d a385 323d
00000170: a9d3 9c3d aab9 1c3e 19b6 8fbe a307 11bd
00000180: 4175 053e 1ed9 9b3d 9bc1 13be ed6c d3be
00000190: f1af 793e 51b2 3c3e 2b40 1ebd 1c97 a5be
000001a0: 042a 10be 60fa be3d cfe4 01be 73d4 46be
000001b0: 0844 22bd 301c 503d 2a77 41bc e26d 493e
000001c0: 801d 643c c378 b83d 2a75 35bd 2f2b debe
000001d0: b162 d83c 2c70 503c cf46 643d 3cdc cd3d
000001e0: 69bb 683d f64d 0c3d e935 9e3b 96ac 953d
000001f0: 3740 a9bd f708 99bc bf55 a63d 823a 37be
00000200: d284 23be a51b 70be 5f6c 5dbf 0fde 6c3d
00000210: c940 1ebd 2f16 503c 5021 f73d 0705 04bd
00000220: b16d 13bd 2500 133d 2109 ec3d f022 233e
00000230: 82ed b03e 89d1 333d 8098 313e 9ed1 ab3d
00000240: e7f7 2dbd fda8 35be 6233 833d f917 203b
00000250: 17bb f9bd b0ce 1c3d cb7a ccbd ad35 88be
00000260: 7bb1 4e3c a03e 903d c1df ae3e 855e 33be
00000270: 18ce de3d 2fac 0cbc 9f75 83bc 3c2e 14be
00000280: 6740 883d 0d90 69bd 15c6 77be 401e c7bd
00000290: 13d7 293c bf47 b43c 9791 c0bd 6b2c eb3d
000002a0: 2d0c a5bd 33d6 04be 7d93 4c3e cde4 9fbd
000002b0: 0b3d e63e 9dc4 c23d 2c89 2abe 867a fe3d
000002c0: e8e1 b6bc b1f6 4e3e 5d87 323e 9b2a 50be
000002d0: f3ec 1b3c 32ed 74bd 1a1b b93e 63f4 8e3d
000002e0: 1981 19bc 9277 32bd d799 d2bd 303f c63c
000002f0: ef0e 27be c8c0 7f3d c256 c73d ead5 4b3d
00000300: d3d5 49be d458 07be 9427 95bf e386 01be
00000310: 567a 31be 9077 613d 2918 f3bd 8c59 c8bd
00000320: 80c9 03bd d48f 353d a564 ebbd eb12 1ebe
00000330: 425d 14be 781e cd3d 2578 bdbd f944 bd3d
00000340: a68b 07bb f5ba b1bc fd9f b9bd 6726 a8bd
00000350: 67e6 a03d 12dd b6bc 4f26 a7bd 61db 34bc
00000360: e50b d2bd f859 f5bd 61a4 aa3d 50dd 98be
00000370: 2b1a 873c d46f 9e3d 8e67 103e 7a61 40be
00000380: f9aa 16be aaef 6e3e 19cf 15be 715a 9cbc
00000390: b733 e33c 9b45 f23b 3a69 f8bd 0096 db3d
000003a0: f060 afbd e87b 8a3e d670 ec3d 7b0f bcbd
000003b0: 3f18 8a3d 7959 e8bd b38e 2ebe 9c3d b63d
000003c0: 9a5a f13d 1e19 a23e 80be b1bd c76e 633d
000003d0: 23e4 113e 3fca dfbd 31dc 313e f245 d7bd
000003e0: 8480 1fbd c9b1 8abc a202 54bd f9a5 0ebd
000003f0: dfd1 243e 1707 7dbc 5c02 3dbe 9eb6 053e
0.040266935 0.20669143 -0.19548616 -0.25453758 -0.025601456 0.07553024 -0.12846182 0.30343992
-0.01672728 -0.03144641 -0.049187504 -0.0971338 -0.0519541 -0.14377163 -0.116008095 0.08436901
-0.00212758 0.06838013 -0.20557146 -0.28303248 0.001952466 0.09314521 -0.021750625 0.23021492
-0.1605261 0.024348546 0.07661482 -0.13025549 -0.113438085 -0.1494186 -0.11293144 0.10181115
-0.09595826 -0.036622398 -0.22784574 -0.21403515 -0.05215886 0.134597 0.03224635 -0.0054925615
-0.10732013 -0.1637478 -0.04477831 -0.10283262 -0.16881901 -0.29205143 0.16452292 0.12905347
-0.13212755 -0.090313725 -0.029719952 0.19717157 -0.026314147 0.083048165 0.035398796 -0.11959871
-0.107584864 -0.2594636 -0.20118712 -0.029300138 0.08870003 -0.04155234 -0.13754667 -0.027848281
0.069986895 -0.3124465 -0.1904621 0.01942584 0.08512801 0.10017872 -0.2875313 -0.30969906
0.06983203 0.03440072 0.1214495 0.13731177 0.107328355 -0.041848034 -0.0038871286 -0.3194008
-0.00951039 0.17726883 0.12616122 -0.6485755 0.02529181 0.031146929 0.0125474995 -0.09316706
0.09736865 0.051998325 0.060020696 0.043584477 0.076575585 0.153052 -0.28068617 -0.035407674
0.1303301 0.07609771 -0.14429323 -0.4129404 0.24383523 0.18427397 -0.038635414 -0.3234185
-0.14078528 0.09325099 -0.1268494 -0.1941698 -0.03961566 0.05080813 -0.011808196 0.19670823
0.013923049 0.090074085 -0.04430119 -0.4339232 0.026414247 0.012722056 0.05573159 0.10051772
0.056819353 0.034254037 0.004828204 0.07308309 -0.08264201 -0.018681033 0.081218235 -0.17893413
-0.15968636 -0.23448046 -0.86493486 0.05782896 -0.038636003 0.0127006015 0.12066901 -0.032231357
-0.03599328 0.03588881 0.11525179 0.15931296 0.34556204 0.043901 0.1734333 0.08389591
-0.042472746 -0.17740245 0.06406285 0.0024428351 -0.12193888 0.03828305 -0.099843584 -0.2660345
0.012615557 0.07043195 0.34155086 -0.17516525 0.10879153 -0.008585974 -0.016047297 -0.14470762
0.06652909 -0.057022143 -0.24196656 -0.097225666 0.010366219 0.022006867 -0.09402769 0.114830814
-0.08058963 -0.12972336 0.19978137 -0.07807312 0.44968447 0.09510157 -0.1665389 0.12425713
-0.022324517 0.20211293 0.1743445 -0.20328753 0.009516942 -0.05979652 0.3615349 0.06980207
-0.009369158 -0.043571062 -0.10283249 0.024200052 -0.1631429 0.06243971 0.097333446 0.04976455
-0.19710474 -0.13217479 -1.1652703 -0.12649111 -0.17331824 0.055045664 -0.118698426 -0.09782705
-0.032174587 0.04432662 -0.11493806 -0.15436904 -0.144887 0.10015577 -0.092514314 0.09241671
-0.0020682602 -0.021695593 -0.090637185 -0.0821045 0.07856446 -0.022322211 -0.08161604 -0.011038632
-0.10256175 -0.11980051 0.08332134 -0.29856348 0.01649197 0.07736173 0.14102003 -0.18787184
-0.14713658 0.23333612 -0.14629783 -0.019086095 0.02773462 0.0073935515 -0.121294454 0.107219696
-0.08563411 0.27047658 0.11544959 -0.0918264 0.06742906 -0.113451906 -0.17046623 0.0889847
0.11784859 0.31659788 -0.08678913 0.055525567 0.14247184 -0.10927247 0.17369153 -0.10511388
-0.03894092 -0.016930478 -0.051760323 -0.034826253 0.16095684 -0.015443585 -0.18457931 0.13057944

fc1.bias f4 [256]
00000000: 4209 753d 28d8 983c ed71 413d 5944 343c
00000010: bf73 823d 7bcf 39bc bd1c 00be 486d 11bd
00000020: 03ca 66be 456c 28be 7a8a 5b3c 5e88 ba3d
00000030: d3b8 e7bd 5059 01be 19a1 e1bd 8f39 af3c
00000040: 45fd c33d c48e 86bd d629 86bd d899 10be
00000050: f5ea 5fbd 4ab8 9d3d 2539 2e3d 1d72 a9bd
00000060: 7085 d7bd 4a15 8f3c b639 6b3c 0577 3b3e
00000070: 0d13 3c3d 0236 ec3d 2c91 223e 145d cdbc
00000080: 3877 1dbd 9a4c 663d 3ae0 ffba 74fe ec3d
00000090: 6591 9e3d f286 3abc d283 e8bd 50ae 973d
000000a0: 95a2 6bbc 40a1 62bd 6bf7 1f3d 6e7f 573d
000000b0: 29ab a9bd 5a36 21bd 11ec 32be 45f0 08be
000000c0: 65b0 d4bc d7be c83b 3e88 8bbd 7bb8 a33d
000000d0: 7434 aebd 0a36 87bd 26bc e93c 6019 bcbd
000000e0: b855 863d ffd8 f5bc 5c32 063e 4ca4 d53d
000000f0: 3d4d 0e3e c4d3 ec3c eac0 be3d 62ea 66bc
00000100: 9185 713d 33e0 c9bd 577f 2abe 0784 0dbe
00000110: 002a f9bd 2502 f3bd 7315 4cbe be8c c43d
00000120: b3e6 42be 01f4 b83d c1ca 02bb b374 ffbd
00000130: adf8 013e b1a6 073c 13c9 b8bd daf8 b93d
00000140: f3f9 33be 858f 993d 8cef 07bd 67a7 01bd
00000150: adbb c03d aaad 6dbd ce59 04bd 7526 bc3d
00000160: 4292 dd3d fd00 9a3c 1621 1a3e b2e3 21be
00000170: c3eb b5bd 8073 0c3e 8a7d 72bd b99d b53d
00000180: a2db 6f3d 6072 0abe 47d6 a0bd 5e7b c13d
00000190: b8b3 3cbd 3632 56be 87db 0bbe 66c5 9ebc
000001a0: 55f7 d3bd 9782 21be 410d cb3d c85f 1bbe
000001b0: 1efd 18be 131b e73d b41c d33d 537f a73d
000001c0: f326 0d3e f3ce 47bb 32b0 cc3d 30e6 8cbd
000001d0: 898d 1dbe 129d b03b 209a b8bd 29ee 34bd
000001e0: d517 94bd 0f40 b8bc 1e31 bebd 710a a4bd
000001f0: b85e 0fbe b80c d7bd 83e5 903d 2170 ce3d
00000200: ba1a 053e 4f5b 51bb 7494 d3bd 8fbf 663d
00000210: 51a8 07bc ef77 0ebd b976 2dbc c843 f4bd
00000220: 6e7f 72bd 8b32 62be 8a74 96bd 90d6 4abe
00000230: 79a5 5ebd 039f 083d f402 073c 0075 31be
00000240: a363 97bc 4148 b1bd f91f babd 1bb3 d73d
00000250: d252 13be 74da 013e bde6 e7bd c7af 0abe
00000260: 1011 10be 1f7d 13be 4f2a 97bd 990f 8a3d
00000270: cb7e 743c 9086 f1bd a96b 973d 5c55 903d
00000280: def6 0b3d 6838 003e 3363 af3d 3b16 71bc
00000290: 3a2a 683d bfba e7bd 7a80 ddbb 68d4 e3bd
000002a0: 3bd7 e2bc 6e00 3cbe c173 bc3d 8daf adbd
000002b0: 8c41 103d 6877 cf3d 32c6 ab3c 880b 9cbd
000002c0: ae2a f13d 26de 27be 3cfb a53d df70 44be
000002d0: 097d b53d 625a 463b 6b51 cebd 882c c4bd
000002e0: 2882 09be 9053 933d a3fb 383e 76d4 cb3d
000002f0: 7f7d 753d df04 763d 07ef 4ebe c1c8 843d
00000300: 174d 273c b291 973d ebc8 bcbc f366 883c
00000310: d67d 0d3e 0291 c4bd 998b fabd 03e1 88bd
00000320: 401a c83d 13f0 39bd f356 babd 3ae6 3d3d
00000330: d015 9fbd fdc7 d1bd 3118 e33d aa60 b73d
00000340: bbd5 ec3d 05be 9abd fa72 10be 56d7 14be
00000350: c98a c03b 9e06 23be 80f4 403d 77e7 24be
00000360: 9a85 fcbd 9cfb f93b 394b ba3b b206 b1bd
00000370: c8ee 7fbd 9a30 b6bd a54c 2bbd 8810 5c3d
00000380: 6d01 44be 5e4d 81bd e8af 1c3c 434b f3bc
00000390: 8e18 083e 692e 57be 2fd8 cbbc f8fc 143d
000003a0: 7609 963b dfb1 8fbd 40d1 423d 2073 33be
000003b0: ae47 8ebd 1ee8 a0bc fc07 abbc dc9b f3bd
000003c0: 2bc9 3a3d 04ea e33d 5441 2ebe e76a 40bd
000003d0: 11e2 4fbe 9d44 8dbd c66d 7bbd 1ce5 023e
000003e0: 4998 143e fbdc 3e3d 6589 1dbd e1fa 42be
000003f0: bc39 7dbd 7935 1f3e e597 0abc 331b 20bc
0.059823282 0.018657759 0.04722779 0.0110026235 0.06369733 -0.011340971 -0.12510963 -0.03550461
-0.22537999 -0.16447552 0.013399715 0.09108041 -0.11314549 -0.12631726 -0.11017055 0.02138975
0.09569792 -0.06570199 -0.06550948 -0.14121187 -0.05466743 0.07701166 0.042534966 -0.082737185
-0.10523498 0.017466206 0.014357021 0.18307121 0.045916606 0.11533739 0.15875691 -0.025068797
-0.038443774 0.056225397 -0.0019521781 0.115719706 0.077425756 -0.0113847125 -0.11353268 0.07406294
-0.014382024 -0.05532956 0.039054316 0.05261176 -0.08284599 -0.039358474 -0.17472865 -0.13372906
-0.025963018 0.0061262655 -0.068130955 0.07994171 -0.085060984 -0.06602104 0.028532099 -0.091845274
0.06559318 -0.030010698 0.13105148 0.10431728 0.13896652 0.028909571 0.09314139 -0.014093967
0.05896527 -0.09857216 -0.16650139 -0.13819896 -0.12166214 -0.118656434 -0.19930057 0.09597157
-0.19033317 0.09030915 -0.0019957277 -0.124734305 0.12692519 0.008279488 -0.09022727 0.09080668
-0.17575817 0.07498077 -0.033187434 -0.031653788 0.09410796 -0.058026947 -0.032312207 0.091870226
0.10818912 0.0187993 0.15051684 -0.15809515 -0.088828586 0.13715935 -0.059201755 0.08867974
0.058559068 -0.13520193 -0.0785337 0.094473585 -0.04606983 -0.20917591 -0.13657962 -0.019381236
-0.10349909 -0.15772472 0.09914637 -0.15173256 -0.14940307 0.11284461 0.10308209 0.08178582
0.13784389 -0.0030488342 0.09994544 -0.06879842 -0.15386023 0.005389818 -0.09013772 -0.04417244
-0.07231108 -0.022491483 -0.09286712 -0.08009804 -0.14000976 -0.10500473 0.07075026 0.10079981
0.12998477 -0.0031945293 -0.103310496 0.05633503 -0.008279876 -0.034782346 -0.010587388 -0.11926991
-0.059203558 -0.22089593 -0.07346447 -0.19808412 -0.054357026 0.03335477 0.00824045 -0.17329788
-0.018480128 -0.086563595 -0.090881296 0.105322085 -0.14387062 0.1268099 -0.11323307 -0.13543616
-0.14069009 -0.14403199 -0.073811166 0.06741256 0.014922808 -0.11793244 0.073935814 0.07047531
0.034170978 0.12521517 0.085638426 -0.014714773 0.056680895 -0.11314916 -0.0067597004 -0.11124498
-0.02769052 -0.18359539 0.09201766 -0.08480749 0.03521876 0.10130197 0.02096853 -0.07619387
0.11775719 -0.16393337 0.0810456 -0.19183682 0.08861739 0.0030266275 -0.10074123 -0.09578806
-0.13428557 0.07193673 0.18064742 0.09952633 0.059934136 0.06006324 -0.20208369 0.06483603
0.010211251 0.07400836 -0.023045024 0.016650653 0.13817534 -0.095979705 -0.122336574 -0.066835426
0.09770632 -0.04539497 -0.090986155 0.04636214 -0.07767832 -0.10243223 0.110885985 0.08953984
0.11564203 -0.075557746 -0.1410636 -0.14535269 0.0058759195 -0.15920493 0.047108173 -0.16103922
-0.1233017 0.007628871 0.005685237 -0.08643855 -0.06248358 -0.08895989 -0.04182114 0.053726703
-0.19141169 -0.06313585 0.009563424 -0.029698974 0.13290617 -0.21013798 -0.024883358 0.036374062
0.0045787646 -0.07016348 0.047562838 -0.17524385 -0.069472656 -0.019641932 -0.02087783 -0.11894962
0.045602005 0.11128619 -0.17017108 -0.04697695 -0.20301081 -0.068978526 -0.061383985 0.12782711
0.14511217 0.046597462 -0.038461108 -0.19041015 -0.061822638 0.15547742 -0.008459066 -0.00977211

fc2.weight f4 [256, 256]
00000000: a90d 1dbd 156a 0b3d 90e4 ec3d 9c3f 003d
00000010: c0c0 24bd d188 ae3c 5354 02be b285 1a3d
00000020: 1834 f53c 3007 d6bc 31e0 12bc faa4 4dbd
00000030: 9a98 c2bc 1095 00be 16c2 723c d710 08bc
00000040: 8c77 62be 9885 123d 519f 9dbd 6a2f ddbd
00000050: 5893 81bd b743 443d df73 32bd 2013 0abe
00000060: 3b6e 913c 62b0 0c3c 207e a43d be3c aabd
00000070: 382e 35bb e5dd babd 6af2 fbbd f1e3 e5bc
00000080: ccca 743d 76a0 78bd 4dda fabb 0361 3dbd
00000090: 14a4 dcbd 89d5 0c3c c961 063d a671 e83c
000000a0: 60e9 cabb 6aad 09bb ccd0 c1bc 82e4 f2bc
000000b0: 3c71 86bd 4065 ecbc 17ee 0dbd d672 f43b
000000c0: ffb4 03bd 4b4c 8bbd 1359 dbbd 4b2d 01bd
000000d0: c133 dd3c 2d3d 2ebc 431d 35be c4c7 9ebd
000000e0: 21e0 5cbd 57bd 7fbd 9297 4ebd 7fab 9a3d
000000f0: 2f5b 8ebc a1c0 363d ed92 483d 7b0e e1bd
00000100: 3509 153d f6c8 103c d8ba 92bc 9763 823d
00000110: 60b7 b5bc 23da ecbd 9950 87bb 7b81 56bd
00000120: 994f eabd 1498 6f3d e057 bdbd f107 a2bd
00000130: 42c4 6ebd 05c0 133c 5b95 25bd 7b8d a73c
00000140: 9086 8a3b 9069 a0bd cf14 c8bb 8019 42bd
00000150: bbdd 8fbe 7953 24bd d04b ddbd e875 853d
00000160: 1873 05bc ecfc ecbc 551c 41be 433f 60bd
00000170: d78a 05be 3eb4 f63c da97 763d aea6 5bbd
00000180: f41f dbbb 2cd5 4ebd cc5d 73bc 03a5 a6bc
00000190: 25cd 2d3d 8e47 a3bd d06b 60bd 6bc0 05bd
000001a0: 42b7 e2bc 29b4 123d 5870 dcbc 7250 953c
000001b0: 1478 09bc f9c4 92bd c75a 213c c857 933d
000001c0: d533 a0bd 3cc4 313d 491b 1fbc a25d e6bb
000001d0: 3e53 abbc 21bf a6bd 6295 813c 425b 7f3c
000001e0: 3f5f 5cbd 3f8d 28be e584 c3bd ef68 83bd
000001f0: e5de 683d e195 e63b 7f35 59bd c607 03bd
00000200: be9e c93c 43f7 24bd 396a b9bd f17d 1a3c
00000210: 6c0c c8bd 7c5d cebd d191 30bc 7c82 8a3d
00000220: 2479 4e3c 0eef cabd d259 aebb d360 923b
00000230: d244 71bd ad17 23bc 782c 5d3d 6409 c3bb
00000240: 7be5 2dbd 00a9 403c 1dce 83bd ea9b b7bc
00000250: a9d0 a6bd 0abe 613d 8568 09be 49ad d0bd
00000260: fe7b afbd 52eb a0bd f455 1fbd dc57 393d
00000270: 6fd4 91bd 33c1 1dbd a984 523c e9c5 2d3d
00000280: 6ccd f43b 36db 2a3c eb3f 983c a5f3 f93c
00000290: 3fe3 8fbd 4569 44be 7a42 a4bd e9ff 9ebd
000002a0: daa2 06be 1fbe 03be 9bea 8fbd 118c c4bc
000002b0: a002 653c cfea bcbd 31e9 34bd 2634 91bd
000002c0: bf0b adbd 0260 003d 4298 5e3d f4ca 523d
000002d0: 7f87 543d 89e2 8dbb 7b6d 0cbd 506e 523c
000002e0: d8ab 4fbd 422d 1fbd 5a4a 3a3d 05ba 833b
000002f0: 96e4 eabd 04f4 e3bd 4483 2bbd 805c fa3d
00000300: 254c dbbd 76f8 8d3c bfd2 ddbc 3b2f 57bd
00000310: dcd4 dbbc fc28 cbbd e350 3dbd d85e fc3c
00000320: e21a ea3c 94fa 663c ae41 d73c f1f5 09be
00000330: 4b62 86bd 24de f9bc b1c0 3dbd da11 623d
00000340: 1a59 3dbd 4ca7 b1bd beba c43c 101f 14be
00000350: a15a 923d 87e6 0cbd 8cc6 a9bb ceb6 d1bd
00000360: 7c4c ea3c b238 9a3d 2bac 2abd f2fc 90bd
00000370: 72e4 013c be83 153b 81de 873d 0e62 dd3b
00000380: 8234 5dbd 60f4 ecbc 5233 59bd 24a3 e43c
00000390: 7792 163d 6f00 3c3c acfc a93c d588 80bd
000003a0: 7152 f5bc 56fc 67bd 9a5e d8bb 1d5f 6abc
000003b0: d36a a5bd 7011 623d 5546 6cbb b5c0 813d
000003c0: 74c6 6c3c f849 c0bd 4129 10bd 3966 2abd
000003d0: 47a1 303b 0396 cabd d8a8 713d c467 07bd
000003e0: b1fc bcbb b398 5bbe 6878 2d3d 0361 a3bd
000003f0: e02e 4e3d bb14 b53c 403d a1bc b306 15be
-0.038343105 0.034036715 0.11567032 0.031310663 -0.040222883 0.021305474 -0.1272748 0.037725158
0.029932067 -0.026126474 -0.008964584 -0.050206162 -0.023754407 -0.12556863 0.0148167815 -0.008304796
-0.22115916 0.035771936 -0.07696403 -0.10800059 -0.06326932 0.04791614 -0.043567535 -0.13483858
0.017752757 0.008586975 0.08031869 -0.08312367 -0.0027645957 -0.09124354 -0.12302096 -0.028062792
0.059763715 -0.060699902 -0.007655418 -0.046235096 -0.10773483 0.008595833 0.0328081 0.028374504
-0.0061923712 -0.0021007904 -0.023659132 -0.029649977 -0.065645665 -0.028856874 -0.03465089 0.0074599786
-0.032155033 -0.06801661 -0.10710349 -0.031537335 0.027002217 -0.010634703 -0.17686944 -0.07752946
-0.053924683 -0.062436428 -0.050437517 0.075522415 -0.017377464 0.0446173 0.048968244 -0.1098909
0.036385734 0.008836975 -0.01791136 0.063666515 -0.022182167 -0.11565044 -0.004129481 -0.052369576
-0.11440963 0.058494642 -0.092452765 -0.07911671 -0.058292635 0.009017949 -0.04042564 0.020453205
0.004227467 -0.078326344 -0.006105996 -0.0473876 -0.28098854 -0.04011867 -0.10805476 0.065166295
-0.008145116 -0.028929196 -0.18858464 -0.05474783 -0.13041244 0.030115243 0.06020341 -0.053625755
-0.0066871587 -0.050496265 -0.014853906 -0.020342356 0.04243197 -0.07972632 -0.054790318 -0.032654207
-0.027675275 0.035816345 -0.026909038 0.018226836 -0.008390445 -0.07166476 0.009848303 0.07194477
-0.07822386 0.043400034 -0.009711095 -0.007030205 -0.020913716 -0.08141924 0.015818302 0.015585722
-0.05380177 -0.16460131 -0.09546832 -0.06416499 0.056853194 0.00703691 -0.053029533 -0.031989835
0.024611827 -0.04027487 -0.090534635 0.009429441 -0.09767994 -0.100764245 -0.010776953 0.06763169
0.012602124 -0.09908877 -0.005320766 0.0044671088 -0.058903523 -0.009954375 0.053997487 -0.005952047
-0.042455178 0.011759043 -0.06435797 -0.022413213 -0.081452675 0.055112876 -0.13418777 -0.101893015
-0.085685715 -0.07857384 -0.03890033 0.045249805 -0.071205966 -0.038514327 0.012849011 0.04242507
0.0074707773 0.0104282405 0.018585166 0.030511687 -0.07025766 -0.19180782 -0.08020492 -0.07763655
-0.1314806 -0.12865494 -0.07027169 -0.02399257 0.013977677 -0.09224474 -0.0441677 -0.07090025
-0.08449506 0.03134156 0.054344423 0.051463082 0.05188703 -0.0043299836 -0.034284096 0.012843683
-0.050700992 -0.03886152 0.045481063 0.004019978 -0.114693806 -0.11130527 -0.04187323 0.12224674
-0.10707883 0.01733039 -0.02707803 -0.052535277 -0.026834898 -0.099199265 -0.046219718 0.030806944
0.028577272 0.014097828 0.026276436 -0.13472725 -0.06561717 -0.030501433 -0.046326343 0.055192806
-0.046227552 -0.086744875 0.024014827 -0.14464974 0.07146192 -0.034399536 -0.0051811393 -0.10239945
0.028600924 0.07530345 -0.0416681 -0.070794955 0.007928001 0.002281412 0.06634236 0.006756074
-0.054005153 -0.02892512 -0.05302746 0.027909823 0.036760774 0.011474713 0.020750366 -0.06276099
-0.029946538 -0.05663713 -0.0066030743 -0.014304903 -0.08077016 0.05519241 -0.0036052663 0.06335584
0.014451612 -0.093891084 -0.035195593 -0.041601393 0.0026951598 -0.09891894 0.058998913 -0.033057943
-0.005767428 -0.21444969 0.042351156 -0.07977488 0.050337672 0.022104612 -0.019682527 -0.14553337

fc2.bias f4 [256]
00000000: 3b1c c5bc bbde 4fbd 9a01 cabb 24e1 f13c
00000010: f29e 983c 5e29 ebbb 05e7 83bd 3b01 f03c
00000020: 7253 92bc 21e9 73bd 5cc1 6e3d 66dd 40bd
00000030: 1ff6 2abc 1512 89bd 2c91 593d 9709 523c
00000040: 1980 8b3d 7b23 fa3c c1ab 2d3d 8933 6c3d
00000050: 5173 983d 397e aabb f40c b13c 918d 09bd
00000060: 58c3 28bd edec 84bd 22c3 ea3c 1624 9d3c
00000070: 9273 7dbd fa47 84bc 85d2 6e3c c069 84bd
00000080: 8279 33bd 3afe 5ebd 83ae 8a3c c8d7 453c
00000090: c151 b7bc 5f1a fd3c adbe aa3d 79f6 e73b
000000a0: 35f6 95bc 0439 1abd 7ef2 5b3d 9c95 4a3c
000000b0: 612f a5bc 3775 23bc 3948 82bc 25d4 ebbb
000000c0: 2675 c8bc 0bb5 7d3d 2769 273c e6c1 41bd
000000d0: f404 70bd 7cd5 bbbb 7227 adbd 9618 143c
000000e0: a277 60bd 122f 53bd b657 2b3d 46b3 b53c
000000f0: e751 b4bd b19c 46bd 8030 803d 5ef3 45bd
00000100: 453e 343d 1a95 923d 2679 f0bc 22bd cc3c
00000110: ee94 723c 5999 41bd b171 b03c 3d9a aa3b
00000120: 59dc 8fbd c297 1f3b 4d25 343d 0b5a 07bd
00000130: 436f b83c 4506 32bd 18d4 933b 095d 41bd
00000140: 7b46 18bc 9341 853d 84d2 e93c 16ed 00bd
00000150: 8ad2 20bd 8809 843b ab34 243d 7580 b3bb
00000160: 8458 653d a064 f83b 4fd7 e93c 22d9 fbba
00000170: a6e4 f0bc fe55 83bd 33db b13d 885b 693d
00000180: b4d2 923b 62f5 753b d141 843c b5a4 003d
00000190: b1db 2bbd 5032 8c3d 56df 0b3d dece acbd
000001a0: 6caa 07bd c166 d73c b6fe 023d a5d6 003d
000001b0: f69e 52bd 403b 00bd 3b4b a53a 7eb1 003d
000001c0: 349d 3fbc 420e dc3b 2e28 823c b7df 86bd
000001d0: 5772 9bbd 1fce 76bd 95d9 963d ffe7 993d
000001e0: 85d1 693d 4e0d 80bc cb62 29bd aa92 adbd
000001f0: a425 74bd 2e70 25bd 825c d4bc f87f e83c
00000200: 1a24 6ebd 3f0f 383d d54a 97bd e8d4 173d
00000210: 6f90 bfbc 641c 393d b735 36bd dd2e 0cbd
00000220: 215b 793d 1e5c 6ebd 5d52 39bb 7486 53bd
00000230: 65c5 17bc 923a d53b 24c6 953c 32f0 fa3c
00000240: 1ca3 473d 5c1a 69bd f648 96bd 68fb d1ba
00000250: 8042 1f3d d23f 26bd 2499 86bd c21c 3bbc
00000260: 978e e7bc dc2e 9a3a 63bd d4bc fdff 42bc
00000270: ab43 203d cabf 27bd a4ca 2ebd a708 8ebc
00000280: 1377 57bd bf5c 993c fa54 aebc 9eaf 84bd
00000290: fcad 28bd 26a5 633d e843 22bd 2e40 debd
000002a0: 279e 40bd 4d73 fa3c 8522 a73d 208e 1fbc
000002b0: 6a1b 013d 2b34 85bd 48e9 0ebd 85dd d73b
000002c0: c40b 61bc 83f4 943b af4a 44bc 4146 babc
000002d0: c17d 6b3d 934f c5bd 3454 343d 6a56 90bb
000002e0: fb04 f0bc 1640 6ebd de10 2fbd d9a9 983d
000002f0: 7a72 56bb 283b 59bd e7ee 803d 46a1 2fbc
00000300: b30c 003d 71b9 663d ddf7 323d e136 dfbc
00000310: eae5 7abd 8988 593b 9663 2cbd 66c7 083d
00000320: 857a 3b3c e902 9abd a343 87bc fa25 f0bc
00000330: 5854 9abd e16e b3bd fa13 8abc 6faa a3bc
00000340: 0fbf 923a 5a92 cfbc b5a1 293d 7e8b daba
00000350: 25da 93bd b788 01bd aa72 e9bc 82cc 0bbd
00000360: a4dc f5bb f127 81bc 7556 4d3c a713 87bd
00000370: e451 9dbc 2804 b4bb b87a fb3c a12e 993b
00000380: 51ce 813d 79ef 0abd c371 6bbd 36c7 edbc
00000390: efa5 85bd cea7 433d 7ba2 5e3d 268c 4f3d
000003a0: 22c5 933d a552 bf3c 22b7 ebbc b32d afbd
000003b0: 13e8 a13d d17f b6bc ca53 da3c 585d ed3c
000003c0: b52e 863d 92ac 013d c400 8ebb dcf3 deba
000003d0: 8b67 673c 42c1 32bc e228 4c3c fadc 3dbd
000003e0: 04a7 043b c297 853d 9a98 b23c c699 683b
000003f0: 8f79 87bd ffef 98bd f1c0 4c3d 2139 423d
-0.024061313 -0.05074952 -0.0061647417 0.0295263 0.018630479 -0.007176562 -0.06440548 0.029297462
-0.017862055 -0.0595485 0.05828987 -0.047086142 -0.010434656 -0.06692902 0.053116962 0.012819669
0.06811542 0.030534497 0.042400125 0.057666335 0.0744387 -0.005203035 0.021612622 -0.033582274
-0.04120192 -0.064905025 0.0286575 0.019182246 -0.061877795 -0.016147602 0.014576559 -0.06465483
-0.04381705 -0.054441668 0.016928917 0.012075372 -0.02237785 0.030896364 0.0833715 0.0070789424
-0.018305877 -0.03765203 0.053698055 0.012364771 -0.020164194 -0.009976677 -0.01590358 -0.0071969205
-0.024469923 0.061940234 0.010217941 -0.047304057 -0.058598474 -0.0057322364 -0.08454789 0.009039065
-0.05480159 -0.05155856 0.041831695 0.02218021 -0.08804684 -0.048489276 0.06259251 -0.048327796
0.044004697 0.07157345 -0.029354643 0.02499253 0.014806015 -0.047265384 0.021538587 0.005206375
-0.0702445 0.002435193 0.043980885 -0.033044856 0.022513991 -0.04346301 0.0045113675 -0.047207866
-0.009294148 0.06506648 0.028542764 -0.031476103 -0.039263286 0.0040294565 0.04008929 -0.0054779598
0.05599262 0.007580355 0.02854505 -0.0019214491 -0.029405903 -0.06412886 0.08684387 0.056972057
0.004480684 0.0037530293 0.016144665 0.031407077 -0.04195756 0.06845534 0.034148537 -0.08437894
-0.03312151 0.026294114 0.031981193 0.0314547 -0.05142113 -0.031306505 0.0012610921 0.03141927
-0.011695195 0.006715567 0.0158883 -0.06585639 -0.07590168 -0.060255166 0.07365719 0.07514953
0.05708458 -0.015631344 -0.041353982 -0.084752396 -0.05960621 -0.040390186 -0.025923017 0.028381333
-0.058139898 0.044936415 -0.0738732 0.037068278 -0.023384301 0.04519309 -0.04448482 -0.03422438
0.060877923 -0.05819332 -0.0028277852 -0.051641896 -0.009263371 0.0065072263 0.018282957 0.030632112
0.048739538 -0.056909904 -0.07338135 -0.001602036 0.03888178 -0.040588208 -0.06572178 -0.011420431
-0.028266234 0.0011763233 -0.025969213 -0.011901853 0.039127033 -0.04095439 -0.042673722 -0.01733811
-0.052603792 0.018720983 -0.021280754 -0.06478809 -0.04118155 0.05557742 -0.03961554 -0.10852085
-0.047025826 0.030572558 0.08160881 -0.009738475 0.031520285 -0.06504091 -0.034890443 0.0065876865
-0.013735715 0.0045457496 -0.011980697 -0.022738578 0.057492975 -0.09634318 0.044025615 -0.0044048326
-0.02929925 -0.058166586 -0.042740695 0.07454271 -0.0032722042 -0.05303493 0.06295567 -0.010719603
0.03126211 0.056329194 0.043693412 -0.027247848 -0.06125442 0.0033192954 -0.04208716 0.033393286
0.011442785 -0.07520086 -0.016511744 -0.029314984 -0.075356185 -0.08761383 -0.016855229 -0.01997873
0.0011195856 -0.02533834 0.04141398 -0.0016673652 -0.07219342 -0.031624522 -0.028497059 -0.03413058
-0.007503109 -0.015766116 0.01253282 -0.06595545 -0.019204088 -0.0054936595 0.030698165 0.004674748
0.0633818 -0.033919785 -0.05748154 -0.029025655 -0.0652579 0.047767453 0.054354172 0.050670765
0.072153345 0.023354838 -0.028773848 -0.08553638 0.07905593 -0.022277744 0.026651282 0.028975174
0.065518774 0.031658716 -0.0043335874 -0.0017009932 0.014123808 -0.010910334 0.012460919 -0.046353318
0.002024115 0.06523086 0.021801282 0.0035492047 -0.06614982 -0.074676506 0.04998869 0.047417764

fc3.weight f4 [256, 256]
00000000: c841 b0bc 7d8f 723d d4b9 653c 8930 2bbd
00000010: 5938 d5bc c787 133e 9cf7 17bd 1d40 82bc
00000020: c00b 4abd 1040 f5bd f4c7 d4bc c57b 1e3e
00000030: d6bb 8c3d 3e3b b63d 5fab 7ebd 7456 f1bd
00000040: 9565 e53c 4b31 063d 6b8d d43d 794f 263c
00000050: eb35 5c3d a729 093d 63a1 563e c041 36bd
00000060: 2e14 4f3d 4fb4 1d3e 02a5 edbd 4838 c73c
00000070: a979 58bc bfad 4dbd e334 893c 6d62 623d
00000080: 7831 0dbd aebe 06bb bef2 bebd e91e 9e3d
00000090: 20dc e3bc eaa4 bf3d 03b7 fbbd 6fda 2bbe
000000a0: e651 ddbd bdb7 a43c 8672 47bd c3dd 45bc
000000b0: 84dc d3bb 12d0 683e 7764 8dbc 66fc 31be
000000c0: 543c a03d 1418 82bd a40f 033d 1072 77bd
000000d0: 5fb9 89bb 08de 79bd 57fc 883d 5ab8 0abc
000000e0: bfe2 35bd 6a23 633c 2891 06bd e527 0cbd
000000f0: c94b be3d d48a 203d e044 fdb9 32d3 063d
00000100: 4482 303e a20b c9bd 2ad7 67bb 338c f93d
00000110: 387e 71bb 9466 183d ed82 dabb 2a9d 153e
00000120: d653 03be fb7d bebd bcc7 a33d e597 afbd
00000130: 9090 143c 2c00 ce3c 9d30 8a3c b438 64bc
00000140: 0fbd 0cbd 1fc8 e0bb 899c a73c b6b7 a2bd
00000150: 7d4e b1bc 02db f53c 6b53 b4bc 763d da3c
00000160: 4cf6 c03d a21b 053d 3ffc 443a 1fe8 6f3c
00000170: 6b11 24be cf39 3fbd eb1f 02be 9bdc 10be
00000180: 4323 e63c 90c0 193e 222a 13bd 2a94 b93c
00000190: d2da 053e 9a16 50be e08c 933d b151 4d3e
000001a0: 794e 87bd 21e2 913d 2a6e abbd 6bd4 a3bd
000001b0: a137 ed3d b6d2 9d3d 4c81 023d 6ac2 1e3d
000001c0: 455c ed3c fd43 67bb 7cc6 a1bc 7fe1 c2bd
000001d0: f91c 5dbd d721 ff3d 1e15 4b3d 9fb8 b6bc
000001e0: 6288 38bd cb2b 5d3d e267 023e 2d9c 66be
000001f0: 464f f2bb 6724 cfbc caa6 933c 4b65 683d
00000200: 4295 2c3d b293 5e3d 8055 9bbd 9f4a ba3d
00000210: 0852 54bd 44b6 0c3d bd4b e8bd 0c67 733d
00000220: f110 9ebd 318c 58bd 7e5e 23bc 0801 2cbe
00000230: f637 43bc c726 8cbd 8255 183d 79ad e33a
00000240: deab 10bd f48f 31bd 6699 17bd 5d2c 2b3d
00000250: 8b06 efbd e7f0 cb3d 75e6 013e 56b3 2f3e
00000260: 5761 90bd c2ae a03b c3d3 feba 50ff be3c
00000270: 478c 6b3d 67b2 78bd 540d b3bd dcc6 76bd
00000280: ec75 e73c cce5 6139 9b31 de3c 6851 673b
00000290: 96a0 d63d 25af d33d f74a 4cbd fec2 e63d
000002a0: 128d 5b3d e05a 1a3b 76f2 8dbd 5eb1 28bb
000002b0: da7f 003e bba1 b73c 822a 603d 4505 9c3d
000002c0: a613 3bbc e0a6 df3d a629 53bd 1cf4 113d
000002d0: 305f a3bc 7ca5 c53b 8126 b3bd a81f 8cbe
000002e0: ce25 a13c 09ca 543d 3c31 41bd 5ee7 333e
000002f0: 89a1 313d c870 a5bb baa6 8cbd 9874 66bd
00000300: 5154 f3bd f4a7 4a3d f2f4 09be 8963 dc3d
00000310: a3f2 033d 0cd7 82bd 62ba 043d 92e1 0f3c
00000320: 19cd 0bbd 6ce8 e239 36e2 e7bd 01a2 f2bc
00000330: 32e0 103c e4e4 2fbc 939b 41bd b2bd 183e
00000340: 8128 773d 74cf 353b e8f2 063d b071 2f3c
00000350: d84f 9e3c 44aa 113d 5ea7 253d 9adc 943c
00000360: 44f9 79bd 860b cb3d 01b9 983d e651 b3ba
00000370: 3514 aabb 9e2c 7e3c 9a80 1a3e 429d a23c
00000380: 473b b23d 91e1 923d 3c97 3d3d 57df b43d
00000390: 6676 0e3e 19e6 80bd 7186 0fbb 9b0c 16bc
000003a0: dd44 edbd abbd 8abd 3624 bd3d bd51 173c
000003b0: fa6f 253e 355a 72bd 0052 0e3e 968b 043d
000003c0: e044 ac3d 7a6b 6fbb 8e80 1a3d 59fb 203c
000003d0: f17e 4a3e 7816 ed3d bdb5 863c b528 a33d
000003e0: c481 43bd b0aa 1f3e 0517 d03d 33e9 423d
000003f0: c40d 07be eadd 96bc 23ea 4a3c b1ba 823d
-0.021515742 0.059218872 0.014021356 -0.041794334 -0.026027845 0.14407264 -0.037101373 -0.015899712
-0.049327612 -0.119751096 -0.025974251 0.15476902 0.06871764 0.08898018 -0.06217515 -0.11784068
0.02800254 0.032761853 0.10378536 0.010150784 0.053762358 0.03348699 0.20960002 -0.044496298
0.050556354 0.15400814 -0.11603738 0.02431883 -0.0132126 -0.050214525 0.016748851 0.055269647
-0.034471005 -0.0020560431 -0.09323643 0.077207394 -0.027814925 0.09357627 -0.12290766 -0.16782545
-0.108066365 0.020107144 -0.048693202 -0.012076798 -0.0064654965 0.22735623 -0.01725982 -0.17381439
0.07824007 -0.06352249 0.031997338 -0.060411513 -0.004203006 -0.06100276 0.06688755 -0.008466804
-0.044405695 0.013863424 -0.032853276 -0.034217734 0.092917986 0.039194897 -0.00048307236 0.032916255
0.17237192 -0.09816672 -0.003537605 0.12184944 -0.0036848914 0.0372072 -0.0066684396 0.14610735
-0.1282495 -0.093013726 0.07997081 -0.085738935 0.0090676695 0.025146566 0.016868884 -0.013929535
-0.034359988 -0.006859794 0.020460384 -0.07945196 -0.021643871 0.030011658 -0.022012433 0.026640635
0.094219774 0.032497056 0.0007514394 0.014642744 -0.1602227 -0.04668599 -0.12707488 -0.14146654
0.028092986 0.15014863 -0.035928853 0.022653658 0.13071755 -0.20321122 0.07204604 0.20050694
-0.06606764 0.07123209 -0.083706215 -0.079995 0.11582876 0.077062055 0.03186159 0.038759626
0.028974662 -0.0035288327 -0.019747965 -0.09515666 -0.05398271 0.12457626 0.049580686 -0.022304831
-0.04505194 0.053996842 0.1273494 -0.22520514 -0.007394704 -0.025285913 0.018023867 0.056737226
0.04213453 0.054340072 -0.07584667 0.09096264 -0.051836044 0.03435351 -0.11342571 0.059424445
-0.07718075 -0.052868072 -0.009971259 -0.16797268 -0.011915198 -0.06843334 0.03719092 0.0017370424
-0.035320155 -0.043350175 -0.037011527 0.041790355 -0.1167117 0.09958058 0.12685569 0.17158255
-0.07049816 0.0049036453 -0.0019441772 0.023315102 0.057506826 -0.060717013 -0.087427765 -0.06024824
0.028254472 0.00021543278 0.027123263 0.0035296325 0.10479848 0.103361405 -0.04987618 0.112676606
0.053601332 0.00235527 -0.069310114 -0.0025740485 0.12548772 0.022415986 0.05472804 0.076181926
-0.011418259 0.10920501 -0.05155339 0.03563319 -0.01994285 0.00603169 -0.087475784 -0.27367902
0.019671347 0.05195049 -0.047166094 0.17568728 0.043366943 -0.005048845 -0.06867738 -0.056263536
-0.118813165 0.04947658 -0.13472345 0.10761172 0.03221382 -0.06388673 0.03240431 0.0087818075
-0.034131143 0.00043279247 -0.11322443 -0.029618265 0.008842515 -0.010735724 -0.047267508 0.14916113
0.060341362 0.002774206 0.032946497 0.010708258 0.019325182 0.03556277 0.040442817 0.018171597
-0.061028734 0.09914307 0.07457162 -0.0013681024 -0.005190397 0.015513567 0.1508812 0.019850377
0.087027125 0.0717193 0.046286806 0.08831661 0.13912353 -0.06293888 -0.0021900202 -0.009158279
-0.115854 -0.067744575 0.09235422 0.0092357965 0.16155997 -0.05916806 0.13898468 0.032359682
0.08411574 -0.0036532567 0.037720256 0.009825551 0.19774987 0.11576551 0.016444081 0.079667486
-0.047731176 0.15592456 0.101606406 0.047585677 -0.13188845 -0.018416364 0.012384924 0.06383265

fc3.bias f4 [256]
00000000: dff2 03bd 2193 8abd feb9 bb3c b088 81bd
00000010: dcd1 1abc 1829 f53c e147 afbd bb86 2fbd
00000020: c603 263c b005 223d 3fa1 0abc 9a30 0cbd
00000030: b798 a7bd eb2c 02be 549c acbc 5d0e 63bb
00000040: 72e2 3bbd 4bed 91bd 42a4 f4bc 40c0 98bd
00000050: cbbc 49bd 6185 063e 7bf5 4fbb 121f 143c
00000060: dc8e 903d 8e1e ddbc 6c14 513d f9f4 79bd
00000070: 2257 a3bc 5ebc 20bd 15da a6bd 0420 3a3d
00000080: 7a26 bdbc 0098 9ebc 0a2a a1bc 43f1 07bd
00000090: e38c 643c 0b27 97ba 794e 9ebd e1a7 723c
000000a0: 7417 743c c23b 36bd 5aee 143d b5ff 4ebb
000000b0: 8e24 84bc 4042 f7bc 5293 443b 16eb 50bc
000000c0: 474a edbc 7bf3 19bd 7049 183d 0a6d 9f3c
000000d0: 38f3 923d 78a4 5abd 2864 e33b a9f1 1b3d
000000e0: 70f1 393c 1514 fb3c 7f7e 133d 160f c0bd
000000f0: de49 d4bc 3cc2 7e3b e3cc b43d fa23 a9bc
00000100: 0f68 133d 6a56 c63c 6277 9f3d b69d 493d
00000110: 6935 bbbc 7727 93bd a1b2 bebd a21b 6cbd
00000120: b6fe 963c 3c37 143d 16f7 eabc cf54 6abd
00000130: 7e54 64bd babf 973c 0f03 473c a36d 86bd
00000140: dc5f 103d 24ac fc3c 78dc 8fbc 18fc fabc
00000150: 8850 21bd db90 c6bc ca37 063d 2400 023d
00000160: d2e7 6ebc 2c1e c23d 01ca 35bd 84e3 28bd
00000170: a091 2236 327d 2bbd a393 b9bd d85f 2a3d
00000180: 0aff a83b ba25 a6bb b358 303b ce99 8dbd
00000190: 17f5 b83d 06f2 293c bf92 8abd 262c a6bc
000001a0: 6d90 c8bd ce7a 48bd 6f43 a9bd 460e e1bc
000001b0: fdc6 c3bd 1fe4 f8bc d366 b73c 76f8 b5bd
000001c0: 6aed 8abd eb30 5dbc 4ac8 83bd 9683 ac3c
000001d0: 9b02 1abd 3dcc 883c 123b 53bd 20e0 9ebc
000001e0: 253c 80bd 576b 083d 32b9 97bc 5da1 a33d
000001f0: 29a5 53bd 0808 fbbc 965d 6dbd e7f6 b9bd
00000200: 3fcb 803c ad66 cfbd 3a39 733d c54e c93c
00000210: 6a26 74bd 9669 9cbd 9d72 0d3d baa8 84bd
00000220: e3c7 02bb 2622 d0bc 3662 083d 01bf 5bbd
00000230: 4026 69bd 2176 17bd b985 4abd 80c1 c63b
00000240: cbbd 03bd 4ad4 3d3d 93eb 42bd 6101 233d
00000250: 5781 a1bd 09cc 1f3d 34d8 0ebd cf14 40bd
00000260: 653c 153d fe4f 4ebd 1323 9ebd af40 73bd
00000270: 1bea 1abd f618 48bd fff6 e43c cd1e 8dbd
00000280: 96ce 38bd fc1a d1bd ecd0 ae3c 6aee b93d
00000290: e28b 43bd ca4d 63bd 234e 7c3d 3452 f0bd
000002a0: 3c0e 89bd 9def 833d a74d 43bd a0f5 bdbd
000002b0: d002 6bbc e2b7 94bd ab17 b43c 7f3c 85bd
000002c0: cb9e 393c 5234 913d 09a0 47bb f283 8d3d
000002d0: 70ee d8bc afe3 943c 5a00 14bd e6c2 4c3c
000002e0: 7fe6 0e3d bc4d 57bd faf1 213b ba28 62bd
000002f0: cf42 d13c 9512 26bd 0206 c1bb f824 a63c
00000300: 5487 e6bd 6a2c 173d 1d18 eebd 51ca 0cbd
00000310: f08d 0c3d 11d2 b738 4de8 ffbd 9439 71bd
00000320: 07d9 d3bd 1617 b1bd 12b5 3fba ded0 933d
00000330: 67e0 9d3c 987b 63bd d2b0 98bd a9f7 c23b
00000340: 8a1b a0bc de06 81bd dac9 93bb 6ed6 dc3d
00000350: 0481 67bd e03a 74bc e3be 483d 4d18 163d
00000360: 7952 fb3d 0846 783d b21f a1bd 6754 4ebc
00000370: 3b4f 4ebd 5ef2 9ebd f0ef c8bd fa79 eebb
00000380: 3c0f d63b 96f1 683d 4ac2 e1bd 8f2e 2fbd
00000390: f026 e33a 67e6 0e3d fcb1 0f3d c483 eab8
000003a0: ceac afbc a615 a4bd 6b8d 2cbb 1c5a 19bd
000003b0: aec3 c7bd 5925 c0bd 31d9 9f3c ded7 5cbc
000003c0: b4a6 76bd 017f a53c 75c6 123d 51ca 02bd
000003d0: 8675 40bd a8cf 8b3c a18f 34bc 14fa b1bd
000003e0: 5157 113e 087d 8b3c 06f6 c2bd a5f0 d13c
000003f0: be79 873d 83d0 b3bc bf41 9c3c 7c61 223d
-0.03221404 -0.06766344 0.022915836 -0.06324899 -0.009449448 0.029926822 -0.08558632 -0.0428531
0.010132736 0.039556205 -0.008461296 -0.034226038 -0.08183425 -0.12712447 -0.021070637 -0.0034646012
-0.045870252 -0.07125338 -0.02986348 -0.07458544 -0.049252313 0.13136818 -0.003173201 0.009040611
0.07058498 -0.026992109 0.051044866 -0.06102464 -0.01993901 -0.03924214 -0.081470646 0.04544069
-0.023089636 -0.019359589 -0.019673366 -0.03318907 0.013949606 -0.0011532021 -0.07729811 0.014810533
0.01489817 -0.044490583 0.036360122 -0.0031585519 -0.016130712 -0.030182958 0.0029995036 -0.012751361
-0.028966082 -0.037585717 0.03717941 0.019461174 0.071752965 -0.053379506 0.00693943 0.038072262
0.011349067 0.030649224 0.036009308 -0.093778774 -0.025914129 0.0038873097 0.088281415 -0.020647038
0.03598791 0.024211127 0.07786442 0.04922267 -0.022852616 -0.07185262 -0.093114145 -0.05764354
0.018432003 0.036185488 -0.028682273 -0.057209786 -0.05574464 0.01852404 0.012146725 -0.0656388
0.03524767 0.030843802 -0.017561182 -0.030637786 -0.03938344 -0.024238994 0.03276805 0.031738415
-0.014581637 0.09478411 -0.0443821 -0.0412326 2.4224646e-06 -0.041867442 -0.090613626 0.04159531
0.005157356 -0.0050704153 0.0026908338 -0.069141015 0.09031122 0.010372644 -0.06766271 -0.020284723
-0.09793172 -0.04894524 -0.08264815 -0.027472626 -0.095594384 -0.030382214 0.022387898 -0.08885281
-0.067835644 -0.0135004325 -0.064346865 0.021058839 -0.03760014 0.01669895 -0.051570006 -0.01939398
-0.06261472 0.033305492 -0.018520925 0.07989762 -0.05167118 -0.030643478 -0.05795058 -0.09080296
0.015721915 -0.10127006 0.059380747 0.024573693 -0.059606947 -0.076373264 0.034533132 -0.064774945
-0.0019955568 -0.025406908 0.033296786 -0.053648952 -0.056921244 -0.03697789 -0.049443934 0.0060655475
-0.032163423 0.046345033 -0.047587942 0.039796237 -0.07885998 0.039012942 -0.034874156 -0.046894845
0.03643455 -0.050369255 -0.077215336 -0.05938786 -0.037820917 -0.04885193 0.027949808 -0.068906404
-0.04511889 -0.10210225 0.021339856 0.09078677 -0.047740825 -0.055494107 0.061597954 -0.11734429
-0.06692168 0.06442187 -0.047681477 -0.09275365 -0.014343932 -0.07261635 0.021983942 -0.06505679
0.011329363 0.070900574 -0.0030460379 0.06909932 -0.026480883 0.018174974 -0.036133148 0.012497639
0.034887787 -0.052564368 0.002471088 -0.05521462 0.025544552 -0.040545065 -0.0058906088 0.0202813
-0.112562805 0.03690759 -0.11625693 -0.03437263 0.03431505 8.765248e-05 -0.1249548 -0.0588928
-0.10344129 -0.086469814 -0.00073130534 0.07217573 0.019272042 -0.05553779 -0.07455601 0.0059499335
-0.019544382 -0.06300138 -0.0045101466 0.10783087 -0.056519523 -0.014906615 0.04901017 0.03664427
0.1227159 0.060613662 -0.078673735 -0.012593365 -0.05036853 -0.077610716 -0.098113894 -0.0072777243
0.006532578 0.05687102 -0.11023386 -0.04276901 0.001733033 0.034887698 0.03508185 -0.00011182533
-0.021444704 -0.080119416 -0.002632941 -0.03743945 -0.0975412 -0.093821235 0.019512745 -0.013479201
-0.060217574 0.020202162 0.035833795 -0.031931225 -0.04698708 0.017066792 -0.011020572 -0.08690277
0.14193465 0.017027393 -0.095195815 0.025627444 0.06615017 -0.021950012 0.019074319 0.03964375

fc4.weight f4 [256, 256]
00000000: 26d1 433d 8dbe 513d c91b b23d a25c edbd
00000010: 4db8 1cbe e0e8 fcbd a73e cabb cd9f 94bb
00000020: dc12 adbc 4696 153d 487f 82bc e65d 9f38
00000030: f0ea 85bd 02cf 5f3d dcd3 bb3d 9ccc 423c
00000040: 9c81 e13c b7e4 bcbc eea2 db3d e3dc 37bd
00000050: 7aef e43b 2b58 1e3e 38ea a93d b2f5 5f3d
00000060: 7439 143e 09ce 143e 9ff7 cdbd 89d5 1abe
00000070: eef8 163e 7fa9 52bd 726d 833d 5f1b c9bc
00000080: 760c 483d 91bb bc3d 3601 893d f2d6 c03c
00000090: e64c 96bd 62f2 cfbb 56f7 093d 3a36 ddbc
000000a0: 3833 5b3c c81d ed3c da55 46bd c67f 88bd
000000b0: 954d 9fbd 00f2 2b3c ef67 233c 6363 dfbd
000000c0: 29ca 5e3d 5e10 a9bd a0c1 80bd 1e34 70bc
000000d0: 6e04 7a3d 7afa 9bbc 8b80 b9bd 6c20 bb3c
000000e0: a836 a6bc 6dee 963a 62fe 0ebe 4b35 713d
000000f0: 3d9b a93d 47fd be3d 732d 8e3d aaf2 823c
00000100: 4d11 273e 731c 6abd df69 11be 67f8 ce3b
00000110: 79c6 7abc caee 6e3b ea32 41bd 7099 8b3d
00000120: 7b0f 53bd ce07 f23a eac8 cbba c3db a23d
00000130: a031 57bb acf4 373d 1437 7f3d 9a9a 063c
00000140: 6fa3 cbbc aec2 eabc 85e7 173d b2a8 6bbd
00000150: f865 4d3d 5e48 513c 0c70 8a3b f60e 01be
00000160: 8281 1c3d c685 69bc f751 2e3d 7f0d 96bd
00000170: 495f 283d 76a8 b53c ac39 d0bc 6933 2dbd
00000180: 72f5 423b 479d 8bbc 137f 873c 6133 babc
00000190: 68f2 063d 995f ff3c 4e1b a2bd 543f 633d
000001a0: d465 aabb af6e 1ebd 7f3d fd3d 2ab4 e33d
000001b0: 17ba 5c3d 51e0 ae3c 06eb c93d 7b60 7dbd
000001c0: 79ac 36bd 6cd6 40be 09f4 7a3b 6228 ebbc
000001d0: 4225 8c3c df48 d33c 8ed1 7cbd 7f4e 993d
000001e0: d5ea e5bc 17d6 053d 70f5 983c 0c2d 85bd
000001f0: cae2 08bd 3386 b13d 634a 933d 5958 e0bb
00000200: 8690 1abd 2d22 583c 4148 6abd faec 9dbd
00000210: a154 b0bc f998 01bd c7a6 99bd 5d3d 0bbd
00000220: 6a30 633c d235 0cbd 6910 d63c eb6b 8f3d
00000230: f976 f7bc 9007 babb e2ac 73bd 0026 eabc
00000240: 6bb9 7b3d b3bd 363d 425e 50bd 0d8f 1e3e
00000250: f1c1 d43c 4a37 ebbd 8a34 19bd e755 0b3e
00000260: 505e 8c3d fdb8 08bd c12d da3b 042b 933d
00000270: 1a0c 843d b8d4 96bd 47fb 20bd 70bd 1b3d
00000280: 9b51 07bc c76d 913d 64a4 80bd 1a42 a43d
00000290: 1c36 88bd b2a3 3bbd a808 9bbd 1e2b b4bc
000002a0: db09 95bc 4889 4cbe 46d1 ad3c 86e4 533d
000002b0: 77f1 be3c 77e7 c83d a619 d33d 085c e5bc
000002c0: 6a8c 13bd 5e8a 1cbc 0461 813c e3cf b23a
000002d0: fbfb 973d 7f6a 0abe 04d9 373e d159 c13d
000002e0: c989 0c3d f654 173c 401e 703c 9c10 d6bc
000002f0: b101 bfbc 71c1 cd3d 97f1 f9bd 9ffe 2b3d
00000300: b868 bcba 6606 38bd 51a6 3b3b ba91 c9bb
00000310: c019 e83d 32f6 7a3d b076 a63c a1d8 3fbc
00000320: 3b1f 8f3d f1dd b0bd c5e9 88bd f52e 07bd
00000330: 12e1 053e 5d54 ac3c a0e0 3ebd 3301 fdbc
00000340: e65d ee3c 31cd ac3d 2648 023e 0a43 053d
00000350: bef8 41bd 5a62 95bc 28b7 2d3d 86f1 da3d
00000360: b058 b7bd b4e6 a73d 92b9 9fbc d620 bfbd
00000370: b8de ccbb a26f f13c 2efb 30bc fea3 433c
00000380: 418e 2abd 7933 903d 7fff d8bd 42b0 043d
00000390: 947f e8bd f56a 823c 1e47 8cbd 50d0 6d3d
000003a0: 11f1 c9ba 46c6 64bc d5d4 83bd 2598 853d
000003b0: 0d67 1cbd 44ce 67bd 5dd4 993d e8ca ea3c
000003c0: de00 213d 7a74 87bc d702 f93c e552 843d
000003d0: a04b 5abd c2a8 a4bd c58c 5b3d 0d1b b4bc
000003e0: 1435 cabc 1088 26bd c905 e53b 7199 d03d
000003f0: e5dd 08be 41eb 21bc c738 6dbc f0bb 433d
0.04780688 0.051207114 0.08696706 -0.11589934 -0.1530468 -0.12349105 -0.0061720195 -0.0045356513
-0.021127157 0.036520265 -0.015929833 7.599201e-05 -0.065389514 0.054640777 0.09171268 0.011889603
0.027527623 -0.023058278 0.10724436 -0.04488839 0.0069865556 0.15463321 0.08296627 0.054677673
0.14475042 0.14531721 -0.100569956 -0.1512052 0.14743397 -0.051431175 0.064173594 -0.024549184
0.04884001 0.09215463 0.06689684 0.023539994 -0.07338886 -0.006346033 0.033683144 -0.027003396
0.013378911 0.028944865 -0.04842172 -0.06664996 -0.077784695 0.010494709 0.00997351 -0.109076284
0.054392014 -0.08255075 -0.06286931 -0.014660863 0.06103938 -0.019040335 -0.09057721 0.022842608
-0.020289734 0.0011515148 -0.13964227 0.058888715 0.082815625 0.093256526 0.069422625 0.015984852
0.16315193 -0.057156038 -0.14200543 0.006316233 -0.015306109 0.0036458247 -0.047167696 0.06816375
-0.051528435 0.0018465461 -0.0015547548 0.079520725 -0.0032835975 0.04491107 0.062308386 0.008215571
-0.024858205 -0.028657284 0.03708603 -0.057533927 0.050146073 0.012773601 0.004224783 -0.12603363
0.038209446 -0.0142530855 0.042558637 -0.07326793 0.041106496 0.022175055 -0.025418125 -0.042285357
0.0029748348 -0.01704277 0.016540086 -0.022729577 0.03294602 0.031173514 -0.07915364 0.055480316
-0.005200127 -0.038679775 0.12365245 0.11118348 0.053888407 0.021347197 0.0985928 -0.06185959
-0.044598076 -0.18831795 0.003829243 -0.02870578 0.01710761 0.025791584 -0.061723284 0.07485675
-0.028066078 0.032674875 0.018671721 -0.06502733 -0.033419408 0.086681746 0.071919225 -0.0068464694
-0.037735485 0.013191742 -0.057197813 -0.07711215 -0.02152473 -0.031640027 -0.075025134 -0.033994067
0.013866523 -0.034231015 0.026130872 0.070030056 -0.030208098 -0.005677171 -0.059491046 -0.028582573
0.061456125 0.044614505 -0.05087114 0.15484257 0.025971385 -0.11485155 -0.03740362 0.13606988
0.06853926 -0.033379544 0.0066582863 0.07185939 0.06447621 -0.07364792 -0.039302137 0.03802246
-0.008259202 0.071010165 -0.06281355 0.0802042 -0.066509455 -0.04581041 -0.075700104 -0.021993216
-0.018193176 -0.19974244 0.021217953 0.05173161 0.023308499 0.098097734 0.103076264 -0.027997985
-0.03602258 -0.009554474 0.015793331 0.0013642277 0.07421108 -0.13517188 0.17953879 0.09440959
0.03431109 0.009236565 0.01465565 -0.026130967 -0.023316236 0.10046662 -0.12204283 0.041990872
-0.001437447 -0.044927977 0.0028633068 -0.006151405 0.113330364 0.061269946 0.020320266 -0.011709363
0.069883786 -0.08636082 -0.06685213 -0.033003766 0.13074139 0.021036321 -0.046600938 -0.03088436
0.029097509 0.08437575 0.12722835 0.032534637 -0.04735636 -0.018235374 0.042411 0.10690598
-0.08952463 0.081983 -0.019497667 -0.09332435 -0.006252136 0.029472176 -0.010802073 0.011940954
-0.04163957 0.07041068 -0.10595607 0.032394655 -0.113524586 0.015920142 -0.06849502 0.05805999
-0.0015406926 -0.013963288 -0.06437079 0.0652316 -0.038184214 -0.056593195 0.07511208 0.028661206
0.039307468 -0.016535033 0.030396862 0.064611234 -0.053294778 -0.080400005 0.053601045 -0.021985555
-0.024683513 -0.040657103 0.006989215 0.101855166 -0.13365896 -0.009882749 -0.014478869 0.047786653
